{"config": {"name": "model_1", "layers": [{"config": {"batch_input_shape": [null, 299, 299, 3], "dtype": "float32", "name": "input_1", "sparse": false}, "name": "input_1", "class_name": "InputLayer", "inbound_nodes": []}, {"config": {"dtype": "float32", "name": "block1_conv1", "padding": "valid", "trainable": false, "activation": "linear", "activity_regularizer": null, "data_format": "channels_last", "kernel_size": [3, 3], "bias_constraint": null, "kernel_constraint": null, "bias_initializer": {"config": {"dtype": "float32"}, "class_name": "Zeros"}, "filters": 32, "use_bias": false, "dilation_rate": [1, 1], "bias_regularizer": null, "strides": [2, 2], "kernel_initializer": {"config": {"distribution": "uniform", "dtype": "float32", "scale": 1.0, "seed": null, "mode": "fan_avg"}, "class_name": "VarianceScaling"}, "kernel_regularizer": null}, "name": "block1_conv1", "class_name": "Conv2D", "inbound_nodes": [[["input_1", 0, 0, {}]]]}, {"config": {"beta_regularizer": null, "axis": [3], "dtype": "float32", "name": "block1_conv1_bn", "trainable": false, "epsilon": 0.001, "beta_initializer": {"config": {"dtype": "float32"}, "class_name": "Zeros"}, "moving_mean_initializer": {"config": {"dtype": "float32"}, "class_name": "Zeros"}, "gamma_initializer": {"config": {"dtype": "float32"}, "class_name": "Ones"}, "moving_variance_initializer": {"config": {"dtype": "float32"}, "class_name": "Ones"}, "gamma_constraint": null, "beta_constraint": null, "momentum": 0.99, "center": true, "scale": true, "gamma_regularizer": null}, "name": "block1_conv1_bn", "class_name": "BatchNormalization", "inbound_nodes": [[["block1_conv1", 0, 0, {}]]]}, {"config": {"dtype": "float32", "name": "block1_conv1_act", "trainable": false, "activation": "relu"}, "name": "block1_conv1_act", "class_name": "Activation", "inbound_nodes": [[["block1_conv1_bn", 0, 0, {}]]]}, {"config": {"dtype": "float32", "name": "block1_conv2", "padding": "valid", "trainable": false, "activation": "linear", "activity_regularizer": null, "data_format": "channels_last", "kernel_size": [3, 3], "bias_constraint": null, "kernel_constraint": null, "bias_initializer": {"config": {"dtype": "float32"}, "class_name": "Zeros"}, "filters": 64, "use_bias": false, "dilation_rate": [1, 1], "bias_regularizer": null, "strides": [1, 1], "kernel_initializer": {"config": {"distribution": "uniform", "dtype": "float32", "scale": 1.0, "seed": null, "mode": "fan_avg"}, "class_name": "VarianceScaling"}, "kernel_regularizer": null}, "name": "block1_conv2", "class_name": "Conv2D", "inbound_nodes": [[["block1_conv1_act", 0, 0, {}]]]}, {"config": {"beta_regularizer": null, "axis": [3], "dtype": "float32", "name": "block1_conv2_bn", "trainable": false, "epsilon": 0.001, "beta_initializer": {"config": {"dtype": "float32"}, "class_name": "Zeros"}, "moving_mean_initializer": {"config": {"dtype": "float32"}, "class_name": "Zeros"}, "gamma_initializer": {"config": {"dtype": "float32"}, "class_name": "Ones"}, "moving_variance_initializer": {"config": {"dtype": "float32"}, "class_name": "Ones"}, "gamma_constraint": null, "beta_constraint": null, "momentum": 0.99, "center": true, "scale": true, "gamma_regularizer": null}, "name": "block1_conv2_bn", "class_name": "BatchNormalization", "inbound_nodes": [[["block1_conv2", 0, 0, {}]]]}, {"config": {"dtype": "float32", "name": "block1_conv2_act", "trainable": false, "activation": "relu"}, "name": "block1_conv2_act", "class_name": "Activation", "inbound_nodes": [[["block1_conv2_bn", 0, 0, {}]]]}, {"config": {"depthwise_regularizer": null, "dtype": "float32", "name": "block2_sepconv1", "padding": "same", "trainable": false, "activation": "linear", "activity_regularizer": null, "data_format": "channels_last", "pointwise_regularizer": null, "kernel_size": [3, 3], "pointwise_constraint": null, "bias_constraint": null, "depthwise_initializer": {"config": {"distribution": "uniform", "dtype": "float32", "scale": 1.0, "seed": null, "mode": "fan_avg"}, "class_name": "VarianceScaling"}, "bias_regularizer": null, "bias_initializer": {"config": {"dtype": "float32"}, "class_name": "Zeros"}, "filters": 128, "use_bias": false, "dilation_rate": [1, 1], "pointwise_initializer": {"config": {"distribution": "uniform", "dtype": "float32", "scale": 1.0, "seed": null, "mode": "fan_avg"}, "class_name": "VarianceScaling"}, "strides": [1, 1], "depthwise_constraint": null}, "name": "block2_sepconv1", "class_name": "SeparableConv2D", "inbound_nodes": [[["block1_conv2_act", 0, 0, {}]]]}, {"config": {"beta_regularizer": null, "axis": [3], "dtype": "float32", "name": "block2_sepconv1_bn", "trainable": false, "epsilon": 0.001, "beta_initializer": {"config": {"dtype": "float32"}, "class_name": "Zeros"}, "moving_mean_initializer": {"config": {"dtype": "float32"}, "class_name": "Zeros"}, "gamma_initializer": {"config": {"dtype": "float32"}, "class_name": "Ones"}, "moving_variance_initializer": {"config": {"dtype": "float32"}, "class_name": "Ones"}, "gamma_constraint": null, "beta_constraint": null, "momentum": 0.99, "center": true, "scale": true, "gamma_regularizer": null}, "name": "block2_sepconv1_bn", "class_name": "BatchNormalization", "inbound_nodes": [[["block2_sepconv1", 0, 0, {}]]]}, {"config": {"dtype": "float32", "name": "block2_sepconv2_act", "trainable": false, "activation": "relu"}, "name": "block2_sepconv2_act", "class_name": "Activation", "inbound_nodes": [[["block2_sepconv1_bn", 0, 0, {}]]]}, {"config": {"depthwise_regularizer": null, "dtype": "float32", "name": "block2_sepconv2", "padding": "same", "trainable": false, "activation": "linear", "activity_regularizer": null, "data_format": "channels_last", "pointwise_regularizer": null, "kernel_size": [3, 3], "pointwise_constraint": null, "bias_constraint": null, "depthwise_initializer": {"config": {"distribution": "uniform", "dtype": "float32", "scale": 1.0, "seed": null, "mode": "fan_avg"}, "class_name": "VarianceScaling"}, "bias_regularizer": null, "bias_initializer": {"config": {"dtype": "float32"}, "class_name": "Zeros"}, "filters": 128, "use_bias": false, "dilation_rate": [1, 1], "pointwise_initializer": {"config": {"distribution": "uniform", "dtype": "float32", "scale": 1.0, "seed": null, "mode": "fan_avg"}, "class_name": "VarianceScaling"}, "strides": [1, 1], "depthwise_constraint": null}, "name": "block2_sepconv2", "class_name": "SeparableConv2D", "inbound_nodes": [[["block2_sepconv2_act", 0, 0, {}]]]}, {"config": {"beta_regularizer": null, "axis": [3], "dtype": "float32", "name": "block2_sepconv2_bn", "trainable": false, "epsilon": 0.001, "beta_initializer": {"config": {"dtype": "float32"}, "class_name": "Zeros"}, "moving_mean_initializer": {"config": {"dtype": "float32"}, "class_name": "Zeros"}, "gamma_initializer": {"config": {"dtype": "float32"}, "class_name": "Ones"}, "moving_variance_initializer": {"config": {"dtype": "float32"}, "class_name": "Ones"}, "gamma_constraint": null, "beta_constraint": null, "momentum": 0.99, "center": true, "scale": true, "gamma_regularizer": null}, "name": "block2_sepconv2_bn", "class_name": "BatchNormalization", "inbound_nodes": [[["block2_sepconv2", 0, 0, {}]]]}, {"config": {"dtype": "float32", "name": "conv2d_1", "padding": "same", "trainable": false, "activation": "linear", "activity_regularizer": null, "data_format": "channels_last", "kernel_size": [1, 1], "bias_constraint": null, "kernel_constraint": null, "bias_initializer": {"config": {"dtype": "float32"}, "class_name": "Zeros"}, "filters": 128, "use_bias": false, "dilation_rate": [1, 1], "bias_regularizer": null, "strides": [2, 2], "kernel_initializer": {"config": {"distribution": "uniform", "dtype": "float32", "scale": 1.0, "seed": null, "mode": "fan_avg"}, "class_name": "VarianceScaling"}, "kernel_regularizer": null}, "name": "conv2d_1", "class_name": "Conv2D", "inbound_nodes": [[["block1_conv2_act", 0, 0, {}]]]}, {"config": {"dtype": "float32", "name": "block2_pool", "padding": "same", "trainable": false, "data_format": "channels_last", "strides": [2, 2], "pool_size": [3, 3]}, "name": "block2_pool", "class_name": "MaxPooling2D", "inbound_nodes": [[["block2_sepconv2_bn", 0, 0, {}]]]}, {"config": {"beta_regularizer": null, "axis": [3], "dtype": "float32", "name": "batch_normalization_1", "trainable": false, "epsilon": 0.001, "beta_initializer": {"config": {"dtype": "float32"}, "class_name": "Zeros"}, "moving_mean_initializer": {"config": {"dtype": "float32"}, "class_name": "Zeros"}, "gamma_initializer": {"config": {"dtype": "float32"}, "class_name": "Ones"}, "moving_variance_initializer": {"config": {"dtype": "float32"}, "class_name": "Ones"}, "gamma_constraint": null, "beta_constraint": null, "momentum": 0.99, "center": true, "scale": true, "gamma_regularizer": null}, "name": "batch_normalization_1", "class_name": "BatchNormalization", "inbound_nodes": [[["conv2d_1", 0, 0, {}]]]}, {"config": {"dtype": "float32", "name": "add_1", "trainable": false}, "name": "add_1", "class_name": "Add", "inbound_nodes": [[["block2_pool", 0, 0, {}], ["batch_normalization_1", 0, 0, {}]]]}, {"config": {"dtype": "float32", "name": "block3_sepconv1_act", "trainable": false, "activation": "relu"}, "name": "block3_sepconv1_act", "class_name": "Activation", "inbound_nodes": [[["add_1", 0, 0, {}]]]}, {"config": {"depthwise_regularizer": null, "dtype": "float32", "name": "block3_sepconv1", "padding": "same", "trainable": false, "activation": "linear", "activity_regularizer": null, "data_format": "channels_last", "pointwise_regularizer": null, "kernel_size": [3, 3], "pointwise_constraint": null, "bias_constraint": null, "depthwise_initializer": {"config": {"distribution": "uniform", "dtype": "float32", "scale": 1.0, "seed": null, "mode": "fan_avg"}, "class_name": "VarianceScaling"}, "bias_regularizer": null, "bias_initializer": {"config": {"dtype": "float32"}, "class_name": "Zeros"}, "filters": 256, "use_bias": false, "dilation_rate": [1, 1], "pointwise_initializer": {"config": {"distribution": "uniform", "dtype": "float32", "scale": 1.0, "seed": null, "mode": "fan_avg"}, "class_name": "VarianceScaling"}, "strides": [1, 1], "depthwise_constraint": null}, "name": "block3_sepconv1", "class_name": "SeparableConv2D", "inbound_nodes": [[["block3_sepconv1_act", 0, 0, {}]]]}, {"config": {"beta_regularizer": null, "axis": [3], "dtype": "float32", "name": "block3_sepconv1_bn", "trainable": false, "epsilon": 0.001, "beta_initializer": {"config": {"dtype": "float32"}, "class_name": "Zeros"}, "moving_mean_initializer": {"config": {"dtype": "float32"}, "class_name": "Zeros"}, "gamma_initializer": {"config": {"dtype": "float32"}, "class_name": "Ones"}, "moving_variance_initializer": {"config": {"dtype": "float32"}, "class_name": "Ones"}, "gamma_constraint": null, "beta_constraint": null, "momentum": 0.99, "center": true, "scale": true, "gamma_regularizer": null}, "name": "block3_sepconv1_bn", "class_name": "BatchNormalization", "inbound_nodes": [[["block3_sepconv1", 0, 0, {}]]]}, {"config": {"dtype": "float32", "name": "block3_sepconv2_act", "trainable": false, "activation": "relu"}, "name": "block3_sepconv2_act", "class_name": "Activation", "inbound_nodes": [[["block3_sepconv1_bn", 0, 0, {}]]]}, {"config": {"depthwise_regularizer": null, "dtype": "float32", "name": "block3_sepconv2", "padding": "same", "trainable": false, "activation": "linear", "activity_regularizer": null, "data_format": "channels_last", "pointwise_regularizer": null, "kernel_size": [3, 3], "pointwise_constraint": null, "bias_constraint": null, "depthwise_initializer": {"config": {"distribution": "uniform", "dtype": "float32", "scale": 1.0, "seed": null, "mode": "fan_avg"}, "class_name": "VarianceScaling"}, "bias_regularizer": null, "bias_initializer": {"config": {"dtype": "float32"}, "class_name": "Zeros"}, "filters": 256, "use_bias": false, "dilation_rate": [1, 1], "pointwise_initializer": {"config": {"distribution": "uniform", "dtype": "float32", "scale": 1.0, "seed": null, "mode": "fan_avg"}, "class_name": "VarianceScaling"}, "strides": [1, 1], "depthwise_constraint": null}, "name": "block3_sepconv2", "class_name": "SeparableConv2D", "inbound_nodes": [[["block3_sepconv2_act", 0, 0, {}]]]}, {"config": {"beta_regularizer": null, "axis": [3], "dtype": "float32", "name": "block3_sepconv2_bn", "trainable": false, "epsilon": 0.001, "beta_initializer": {"config": {"dtype": "float32"}, "class_name": "Zeros"}, "moving_mean_initializer": {"config": {"dtype": "float32"}, "class_name": "Zeros"}, "gamma_initializer": {"config": {"dtype": "float32"}, "class_name": "Ones"}, "moving_variance_initializer": {"config": {"dtype": "float32"}, "class_name": "Ones"}, "gamma_constraint": null, "beta_constraint": null, "momentum": 0.99, "center": true, "scale": true, "gamma_regularizer": null}, "name": "block3_sepconv2_bn", "class_name": "BatchNormalization", "inbound_nodes": [[["block3_sepconv2", 0, 0, {}]]]}, {"config": {"dtype": "float32", "name": "conv2d_2", "padding": "same", "trainable": false, "activation": "linear", "activity_regularizer": null, "data_format": "channels_last", "kernel_size": [1, 1], "bias_constraint": null, "kernel_constraint": null, "bias_initializer": {"config": {"dtype": "float32"}, "class_name": "Zeros"}, "filters": 256, "use_bias": false, "dilation_rate": [1, 1], "bias_regularizer": null, "strides": [2, 2], "kernel_initializer": {"config": {"distribution": "uniform", "dtype": "float32", "scale": 1.0, "seed": null, "mode": "fan_avg"}, "class_name": "VarianceScaling"}, "kernel_regularizer": null}, "name": "conv2d_2", "class_name": "Conv2D", "inbound_nodes": [[["add_1", 0, 0, {}]]]}, {"config": {"dtype": "float32", "name": "block3_pool", "padding": "same", "trainable": false, "data_format": "channels_last", "strides": [2, 2], "pool_size": [3, 3]}, "name": "block3_pool", "class_name": "MaxPooling2D", "inbound_nodes": [[["block3_sepconv2_bn", 0, 0, {}]]]}, {"config": {"beta_regularizer": null, "axis": [3], "dtype": "float32", "name": "batch_normalization_2", "trainable": false, "epsilon": 0.001, "beta_initializer": {"config": {"dtype": "float32"}, "class_name": "Zeros"}, "moving_mean_initializer": {"config": {"dtype": "float32"}, "class_name": "Zeros"}, "gamma_initializer": {"config": {"dtype": "float32"}, "class_name": "Ones"}, "moving_variance_initializer": {"config": {"dtype": "float32"}, "class_name": "Ones"}, "gamma_constraint": null, "beta_constraint": null, "momentum": 0.99, "center": true, "scale": true, "gamma_regularizer": null}, "name": "batch_normalization_2", "class_name": "BatchNormalization", "inbound_nodes": [[["conv2d_2", 0, 0, {}]]]}, {"config": {"dtype": "float32", "name": "add_2", "trainable": false}, "name": "add_2", "class_name": "Add", "inbound_nodes": [[["block3_pool", 0, 0, {}], ["batch_normalization_2", 0, 0, {}]]]}, {"config": {"dtype": "float32", "name": "block4_sepconv1_act", "trainable": false, "activation": "relu"}, "name": "block4_sepconv1_act", "class_name": "Activation", "inbound_nodes": [[["add_2", 0, 0, {}]]]}, {"config": {"depthwise_regularizer": null, "dtype": "float32", "name": "block4_sepconv1", "padding": "same", "trainable": false, "activation": "linear", "activity_regularizer": null, "data_format": "channels_last", "pointwise_regularizer": null, "kernel_size": [3, 3], "pointwise_constraint": null, "bias_constraint": null, "depthwise_initializer": {"config": {"distribution": "uniform", "dtype": "float32", "scale": 1.0, "seed": null, "mode": "fan_avg"}, "class_name": "VarianceScaling"}, "bias_regularizer": null, "bias_initializer": {"config": {"dtype": "float32"}, "class_name": "Zeros"}, "filters": 728, "use_bias": false, "dilation_rate": [1, 1], "pointwise_initializer": {"config": {"distribution": "uniform", "dtype": "float32", "scale": 1.0, "seed": null, "mode": "fan_avg"}, "class_name": "VarianceScaling"}, "strides": [1, 1], "depthwise_constraint": null}, "name": "block4_sepconv1", "class_name": "SeparableConv2D", "inbound_nodes": [[["block4_sepconv1_act", 0, 0, {}]]]}, {"config": {"beta_regularizer": null, "axis": [3], "dtype": "float32", "name": "block4_sepconv1_bn", "trainable": false, "epsilon": 0.001, "beta_initializer": {"config": {"dtype": "float32"}, "class_name": "Zeros"}, "moving_mean_initializer": {"config": {"dtype": "float32"}, "class_name": "Zeros"}, "gamma_initializer": {"config": {"dtype": "float32"}, "class_name": "Ones"}, "moving_variance_initializer": {"config": {"dtype": "float32"}, "class_name": "Ones"}, "gamma_constraint": null, "beta_constraint": null, "momentum": 0.99, "center": true, "scale": true, "gamma_regularizer": null}, "name": "block4_sepconv1_bn", "class_name": "BatchNormalization", "inbound_nodes": [[["block4_sepconv1", 0, 0, {}]]]}, {"config": {"dtype": "float32", "name": "block4_sepconv2_act", "trainable": false, "activation": "relu"}, "name": "block4_sepconv2_act", "class_name": "Activation", "inbound_nodes": [[["block4_sepconv1_bn", 0, 0, {}]]]}, {"config": {"depthwise_regularizer": null, "dtype": "float32", "name": "block4_sepconv2", "padding": "same", "trainable": false, "activation": "linear", "activity_regularizer": null, "data_format": "channels_last", "pointwise_regularizer": null, "kernel_size": [3, 3], "pointwise_constraint": null, "bias_constraint": null, "depthwise_initializer": {"config": {"distribution": "uniform", "dtype": "float32", "scale": 1.0, "seed": null, "mode": "fan_avg"}, "class_name": "VarianceScaling"}, "bias_regularizer": null, "bias_initializer": {"config": {"dtype": "float32"}, "class_name": "Zeros"}, "filters": 728, "use_bias": false, "dilation_rate": [1, 1], "pointwise_initializer": {"config": {"distribution": "uniform", "dtype": "float32", "scale": 1.0, "seed": null, "mode": "fan_avg"}, "class_name": "VarianceScaling"}, "strides": [1, 1], "depthwise_constraint": null}, "name": "block4_sepconv2", "class_name": "SeparableConv2D", "inbound_nodes": [[["block4_sepconv2_act", 0, 0, {}]]]}, {"config": {"beta_regularizer": null, "axis": [3], "dtype": "float32", "name": "block4_sepconv2_bn", "trainable": false, "epsilon": 0.001, "beta_initializer": {"config": {"dtype": "float32"}, "class_name": "Zeros"}, "moving_mean_initializer": {"config": {"dtype": "float32"}, "class_name": "Zeros"}, "gamma_initializer": {"config": {"dtype": "float32"}, "class_name": "Ones"}, "moving_variance_initializer": {"config": {"dtype": "float32"}, "class_name": "Ones"}, "gamma_constraint": null, "beta_constraint": null, "momentum": 0.99, "center": true, "scale": true, "gamma_regularizer": null}, "name": "block4_sepconv2_bn", "class_name": "BatchNormalization", "inbound_nodes": [[["block4_sepconv2", 0, 0, {}]]]}, {"config": {"dtype": "float32", "name": "conv2d_3", "padding": "same", "trainable": false, "activation": "linear", "activity_regularizer": null, "data_format": "channels_last", "kernel_size": [1, 1], "bias_constraint": null, "kernel_constraint": null, "bias_initializer": {"config": {"dtype": "float32"}, "class_name": "Zeros"}, "filters": 728, "use_bias": false, "dilation_rate": [1, 1], "bias_regularizer": null, "strides": [2, 2], "kernel_initializer": {"config": {"distribution": "uniform", "dtype": "float32", "scale": 1.0, "seed": null, "mode": "fan_avg"}, "class_name": "VarianceScaling"}, "kernel_regularizer": null}, "name": "conv2d_3", "class_name": "Conv2D", "inbound_nodes": [[["add_2", 0, 0, {}]]]}, {"config": {"dtype": "float32", "name": "block4_pool", "padding": "same", "trainable": false, "data_format": "channels_last", "strides": [2, 2], "pool_size": [3, 3]}, "name": "block4_pool", "class_name": "MaxPooling2D", "inbound_nodes": [[["block4_sepconv2_bn", 0, 0, {}]]]}, {"config": {"beta_regularizer": null, "axis": [3], "dtype": "float32", "name": "batch_normalization_3", "trainable": false, "epsilon": 0.001, "beta_initializer": {"config": {"dtype": "float32"}, "class_name": "Zeros"}, "moving_mean_initializer": {"config": {"dtype": "float32"}, "class_name": "Zeros"}, "gamma_initializer": {"config": {"dtype": "float32"}, "class_name": "Ones"}, "moving_variance_initializer": {"config": {"dtype": "float32"}, "class_name": "Ones"}, "gamma_constraint": null, "beta_constraint": null, "momentum": 0.99, "center": true, "scale": true, "gamma_regularizer": null}, "name": "batch_normalization_3", "class_name": "BatchNormalization", "inbound_nodes": [[["conv2d_3", 0, 0, {}]]]}, {"config": {"dtype": "float32", "name": "add_3", "trainable": false}, "name": "add_3", "class_name": "Add", "inbound_nodes": [[["block4_pool", 0, 0, {}], ["batch_normalization_3", 0, 0, {}]]]}, {"config": {"dtype": "float32", "name": "block5_sepconv1_act", "trainable": false, "activation": "relu"}, "name": "block5_sepconv1_act", "class_name": "Activation", "inbound_nodes": [[["add_3", 0, 0, {}]]]}, {"config": {"depthwise_regularizer": null, "dtype": "float32", "name": "block5_sepconv1", "padding": "same", "trainable": false, "activation": "linear", "activity_regularizer": null, "data_format": "channels_last", "pointwise_regularizer": null, "kernel_size": [3, 3], "pointwise_constraint": null, "bias_constraint": null, "depthwise_initializer": {"config": {"distribution": "uniform", "dtype": "float32", "scale": 1.0, "seed": null, "mode": "fan_avg"}, "class_name": "VarianceScaling"}, "bias_regularizer": null, "bias_initializer": {"config": {"dtype": "float32"}, "class_name": "Zeros"}, "filters": 728, "use_bias": false, "dilation_rate": [1, 1], "pointwise_initializer": {"config": {"distribution": "uniform", "dtype": "float32", "scale": 1.0, "seed": null, "mode": "fan_avg"}, "class_name": "VarianceScaling"}, "strides": [1, 1], "depthwise_constraint": null}, "name": "block5_sepconv1", "class_name": "SeparableConv2D", "inbound_nodes": [[["block5_sepconv1_act", 0, 0, {}]]]}, {"config": {"beta_regularizer": null, "axis": [3], "dtype": "float32", "name": "block5_sepconv1_bn", "trainable": false, "epsilon": 0.001, "beta_initializer": {"config": {"dtype": "float32"}, "class_name": "Zeros"}, "moving_mean_initializer": {"config": {"dtype": "float32"}, "class_name": "Zeros"}, "gamma_initializer": {"config": {"dtype": "float32"}, "class_name": "Ones"}, "moving_variance_initializer": {"config": {"dtype": "float32"}, "class_name": "Ones"}, "gamma_constraint": null, "beta_constraint": null, "momentum": 0.99, "center": true, "scale": true, "gamma_regularizer": null}, "name": "block5_sepconv1_bn", "class_name": "BatchNormalization", "inbound_nodes": [[["block5_sepconv1", 0, 0, {}]]]}, {"config": {"dtype": "float32", "name": "block5_sepconv2_act", "trainable": false, "activation": "relu"}, "name": "block5_sepconv2_act", "class_name": "Activation", "inbound_nodes": [[["block5_sepconv1_bn", 0, 0, {}]]]}, {"config": {"depthwise_regularizer": null, "dtype": "float32", "name": "block5_sepconv2", "padding": "same", "trainable": false, "activation": "linear", "activity_regularizer": null, "data_format": "channels_last", "pointwise_regularizer": null, "kernel_size": [3, 3], "pointwise_constraint": null, "bias_constraint": null, "depthwise_initializer": {"config": {"distribution": "uniform", "dtype": "float32", "scale": 1.0, "seed": null, "mode": "fan_avg"}, "class_name": "VarianceScaling"}, "bias_regularizer": null, "bias_initializer": {"config": {"dtype": "float32"}, "class_name": "Zeros"}, "filters": 728, "use_bias": false, "dilation_rate": [1, 1], "pointwise_initializer": {"config": {"distribution": "uniform", "dtype": "float32", "scale": 1.0, "seed": null, "mode": "fan_avg"}, "class_name": "VarianceScaling"}, "strides": [1, 1], "depthwise_constraint": null}, "name": "block5_sepconv2", "class_name": "SeparableConv2D", "inbound_nodes": [[["block5_sepconv2_act", 0, 0, {}]]]}, {"config": {"beta_regularizer": null, "axis": [3], "dtype": "float32", "name": "block5_sepconv2_bn", "trainable": false, "epsilon": 0.001, "beta_initializer": {"config": {"dtype": "float32"}, "class_name": "Zeros"}, "moving_mean_initializer": {"config": {"dtype": "float32"}, "class_name": "Zeros"}, "gamma_initializer": {"config": {"dtype": "float32"}, "class_name": "Ones"}, "moving_variance_initializer": {"config": {"dtype": "float32"}, "class_name": "Ones"}, "gamma_constraint": null, "beta_constraint": null, "momentum": 0.99, "center": true, "scale": true, "gamma_regularizer": null}, "name": "block5_sepconv2_bn", "class_name": "BatchNormalization", "inbound_nodes": [[["block5_sepconv2", 0, 0, {}]]]}, {"config": {"dtype": "float32", "name": "block5_sepconv3_act", "trainable": false, "activation": "relu"}, "name": "block5_sepconv3_act", "class_name": "Activation", "inbound_nodes": [[["block5_sepconv2_bn", 0, 0, {}]]]}, {"config": {"depthwise_regularizer": null, "dtype": "float32", "name": "block5_sepconv3", "padding": "same", "trainable": false, "activation": "linear", "activity_regularizer": null, "data_format": "channels_last", "pointwise_regularizer": null, "kernel_size": [3, 3], "pointwise_constraint": null, "bias_constraint": null, "depthwise_initializer": {"config": {"distribution": "uniform", "dtype": "float32", "scale": 1.0, "seed": null, "mode": "fan_avg"}, "class_name": "VarianceScaling"}, "bias_regularizer": null, "bias_initializer": {"config": {"dtype": "float32"}, "class_name": "Zeros"}, "filters": 728, "use_bias": false, "dilation_rate": [1, 1], "pointwise_initializer": {"config": {"distribution": "uniform", "dtype": "float32", "scale": 1.0, "seed": null, "mode": "fan_avg"}, "class_name": "VarianceScaling"}, "strides": [1, 1], "depthwise_constraint": null}, "name": "block5_sepconv3", "class_name": "SeparableConv2D", "inbound_nodes": [[["block5_sepconv3_act", 0, 0, {}]]]}, {"config": {"beta_regularizer": null, "axis": [3], "dtype": "float32", "name": "block5_sepconv3_bn", "trainable": false, "epsilon": 0.001, "beta_initializer": {"config": {"dtype": "float32"}, "class_name": "Zeros"}, "moving_mean_initializer": {"config": {"dtype": "float32"}, "class_name": "Zeros"}, "gamma_initializer": {"config": {"dtype": "float32"}, "class_name": "Ones"}, "moving_variance_initializer": {"config": {"dtype": "float32"}, "class_name": "Ones"}, "gamma_constraint": null, "beta_constraint": null, "momentum": 0.99, "center": true, "scale": true, "gamma_regularizer": null}, "name": "block5_sepconv3_bn", "class_name": "BatchNormalization", "inbound_nodes": [[["block5_sepconv3", 0, 0, {}]]]}, {"config": {"dtype": "float32", "name": "add_4", "trainable": false}, "name": "add_4", "class_name": "Add", "inbound_nodes": [[["block5_sepconv3_bn", 0, 0, {}], ["add_3", 0, 0, {}]]]}, {"config": {"dtype": "float32", "name": "block6_sepconv1_act", "trainable": false, "activation": "relu"}, "name": "block6_sepconv1_act", "class_name": "Activation", "inbound_nodes": [[["add_4", 0, 0, {}]]]}, {"config": {"depthwise_regularizer": null, "dtype": "float32", "name": "block6_sepconv1", "padding": "same", "trainable": false, "activation": "linear", "activity_regularizer": null, "data_format": "channels_last", "pointwise_regularizer": null, "kernel_size": [3, 3], "pointwise_constraint": null, "bias_constraint": null, "depthwise_initializer": {"config": {"distribution": "uniform", "dtype": "float32", "scale": 1.0, "seed": null, "mode": "fan_avg"}, "class_name": "VarianceScaling"}, "bias_regularizer": null, "bias_initializer": {"config": {"dtype": "float32"}, "class_name": "Zeros"}, "filters": 728, "use_bias": false, "dilation_rate": [1, 1], "pointwise_initializer": {"config": {"distribution": "uniform", "dtype": "float32", "scale": 1.0, "seed": null, "mode": "fan_avg"}, "class_name": "VarianceScaling"}, "strides": [1, 1], "depthwise_constraint": null}, "name": "block6_sepconv1", "class_name": "SeparableConv2D", "inbound_nodes": [[["block6_sepconv1_act", 0, 0, {}]]]}, {"config": {"beta_regularizer": null, "axis": [3], "dtype": "float32", "name": "block6_sepconv1_bn", "trainable": false, "epsilon": 0.001, "beta_initializer": {"config": {"dtype": "float32"}, "class_name": "Zeros"}, "moving_mean_initializer": {"config": {"dtype": "float32"}, "class_name": "Zeros"}, "gamma_initializer": {"config": {"dtype": "float32"}, "class_name": "Ones"}, "moving_variance_initializer": {"config": {"dtype": "float32"}, "class_name": "Ones"}, "gamma_constraint": null, "beta_constraint": null, "momentum": 0.99, "center": true, "scale": true, "gamma_regularizer": null}, "name": "block6_sepconv1_bn", "class_name": "BatchNormalization", "inbound_nodes": [[["block6_sepconv1", 0, 0, {}]]]}, {"config": {"dtype": "float32", "name": "block6_sepconv2_act", "trainable": false, "activation": "relu"}, "name": "block6_sepconv2_act", "class_name": "Activation", "inbound_nodes": [[["block6_sepconv1_bn", 0, 0, {}]]]}, {"config": {"depthwise_regularizer": null, "dtype": "float32", "name": "block6_sepconv2", "padding": "same", "trainable": false, "activation": "linear", "activity_regularizer": null, "data_format": "channels_last", "pointwise_regularizer": null, "kernel_size": [3, 3], "pointwise_constraint": null, "bias_constraint": null, "depthwise_initializer": {"config": {"distribution": "uniform", "dtype": "float32", "scale": 1.0, "seed": null, "mode": "fan_avg"}, "class_name": "VarianceScaling"}, "bias_regularizer": null, "bias_initializer": {"config": {"dtype": "float32"}, "class_name": "Zeros"}, "filters": 728, "use_bias": false, "dilation_rate": [1, 1], "pointwise_initializer": {"config": {"distribution": "uniform", "dtype": "float32", "scale": 1.0, "seed": null, "mode": "fan_avg"}, "class_name": "VarianceScaling"}, "strides": [1, 1], "depthwise_constraint": null}, "name": "block6_sepconv2", "class_name": "SeparableConv2D", "inbound_nodes": [[["block6_sepconv2_act", 0, 0, {}]]]}, {"config": {"beta_regularizer": null, "axis": [3], "dtype": "float32", "name": "block6_sepconv2_bn", "trainable": false, "epsilon": 0.001, "beta_initializer": {"config": {"dtype": "float32"}, "class_name": "Zeros"}, "moving_mean_initializer": {"config": {"dtype": "float32"}, "class_name": "Zeros"}, "gamma_initializer": {"config": {"dtype": "float32"}, "class_name": "Ones"}, "moving_variance_initializer": {"config": {"dtype": "float32"}, "class_name": "Ones"}, "gamma_constraint": null, "beta_constraint": null, "momentum": 0.99, "center": true, "scale": true, "gamma_regularizer": null}, "name": "block6_sepconv2_bn", "class_name": "BatchNormalization", "inbound_nodes": [[["block6_sepconv2", 0, 0, {}]]]}, {"config": {"dtype": "float32", "name": "block6_sepconv3_act", "trainable": false, "activation": "relu"}, "name": "block6_sepconv3_act", "class_name": "Activation", "inbound_nodes": [[["block6_sepconv2_bn", 0, 0, {}]]]}, {"config": {"depthwise_regularizer": null, "dtype": "float32", "name": "block6_sepconv3", "padding": "same", "trainable": false, "activation": "linear", "activity_regularizer": null, "data_format": "channels_last", "pointwise_regularizer": null, "kernel_size": [3, 3], "pointwise_constraint": null, "bias_constraint": null, "depthwise_initializer": {"config": {"distribution": "uniform", "dtype": "float32", "scale": 1.0, "seed": null, "mode": "fan_avg"}, "class_name": "VarianceScaling"}, "bias_regularizer": null, "bias_initializer": {"config": {"dtype": "float32"}, "class_name": "Zeros"}, "filters": 728, "use_bias": false, "dilation_rate": [1, 1], "pointwise_initializer": {"config": {"distribution": "uniform", "dtype": "float32", "scale": 1.0, "seed": null, "mode": "fan_avg"}, "class_name": "VarianceScaling"}, "strides": [1, 1], "depthwise_constraint": null}, "name": "block6_sepconv3", "class_name": "SeparableConv2D", "inbound_nodes": [[["block6_sepconv3_act", 0, 0, {}]]]}, {"config": {"beta_regularizer": null, "axis": [3], "dtype": "float32", "name": "block6_sepconv3_bn", "trainable": false, "epsilon": 0.001, "beta_initializer": {"config": {"dtype": "float32"}, "class_name": "Zeros"}, "moving_mean_initializer": {"config": {"dtype": "float32"}, "class_name": "Zeros"}, "gamma_initializer": {"config": {"dtype": "float32"}, "class_name": "Ones"}, "moving_variance_initializer": {"config": {"dtype": "float32"}, "class_name": "Ones"}, "gamma_constraint": null, "beta_constraint": null, "momentum": 0.99, "center": true, "scale": true, "gamma_regularizer": null}, "name": "block6_sepconv3_bn", "class_name": "BatchNormalization", "inbound_nodes": [[["block6_sepconv3", 0, 0, {}]]]}, {"config": {"dtype": "float32", "name": "add_5", "trainable": false}, "name": "add_5", "class_name": "Add", "inbound_nodes": [[["block6_sepconv3_bn", 0, 0, {}], ["add_4", 0, 0, {}]]]}, {"config": {"dtype": "float32", "name": "block7_sepconv1_act", "trainable": false, "activation": "relu"}, "name": "block7_sepconv1_act", "class_name": "Activation", "inbound_nodes": [[["add_5", 0, 0, {}]]]}, {"config": {"depthwise_regularizer": null, "dtype": "float32", "name": "block7_sepconv1", "padding": "same", "trainable": false, "activation": "linear", "activity_regularizer": null, "data_format": "channels_last", "pointwise_regularizer": null, "kernel_size": [3, 3], "pointwise_constraint": null, "bias_constraint": null, "depthwise_initializer": {"config": {"distribution": "uniform", "dtype": "float32", "scale": 1.0, "seed": null, "mode": "fan_avg"}, "class_name": "VarianceScaling"}, "bias_regularizer": null, "bias_initializer": {"config": {"dtype": "float32"}, "class_name": "Zeros"}, "filters": 728, "use_bias": false, "dilation_rate": [1, 1], "pointwise_initializer": {"config": {"distribution": "uniform", "dtype": "float32", "scale": 1.0, "seed": null, "mode": "fan_avg"}, "class_name": "VarianceScaling"}, "strides": [1, 1], "depthwise_constraint": null}, "name": "block7_sepconv1", "class_name": "SeparableConv2D", "inbound_nodes": [[["block7_sepconv1_act", 0, 0, {}]]]}, {"config": {"beta_regularizer": null, "axis": [3], "dtype": "float32", "name": "block7_sepconv1_bn", "trainable": false, "epsilon": 0.001, "beta_initializer": {"config": {"dtype": "float32"}, "class_name": "Zeros"}, "moving_mean_initializer": {"config": {"dtype": "float32"}, "class_name": "Zeros"}, "gamma_initializer": {"config": {"dtype": "float32"}, "class_name": "Ones"}, "moving_variance_initializer": {"config": {"dtype": "float32"}, "class_name": "Ones"}, "gamma_constraint": null, "beta_constraint": null, "momentum": 0.99, "center": true, "scale": true, "gamma_regularizer": null}, "name": "block7_sepconv1_bn", "class_name": "BatchNormalization", "inbound_nodes": [[["block7_sepconv1", 0, 0, {}]]]}, {"config": {"dtype": "float32", "name": "block7_sepconv2_act", "trainable": false, "activation": "relu"}, "name": "block7_sepconv2_act", "class_name": "Activation", "inbound_nodes": [[["block7_sepconv1_bn", 0, 0, {}]]]}, {"config": {"depthwise_regularizer": null, "dtype": "float32", "name": "block7_sepconv2", "padding": "same", "trainable": false, "activation": "linear", "activity_regularizer": null, "data_format": "channels_last", "pointwise_regularizer": null, "kernel_size": [3, 3], "pointwise_constraint": null, "bias_constraint": null, "depthwise_initializer": {"config": {"distribution": "uniform", "dtype": "float32", "scale": 1.0, "seed": null, "mode": "fan_avg"}, "class_name": "VarianceScaling"}, "bias_regularizer": null, "bias_initializer": {"config": {"dtype": "float32"}, "class_name": "Zeros"}, "filters": 728, "use_bias": false, "dilation_rate": [1, 1], "pointwise_initializer": {"config": {"distribution": "uniform", "dtype": "float32", "scale": 1.0, "seed": null, "mode": "fan_avg"}, "class_name": "VarianceScaling"}, "strides": [1, 1], "depthwise_constraint": null}, "name": "block7_sepconv2", "class_name": "SeparableConv2D", "inbound_nodes": [[["block7_sepconv2_act", 0, 0, {}]]]}, {"config": {"beta_regularizer": null, "axis": [3], "dtype": "float32", "name": "block7_sepconv2_bn", "trainable": false, "epsilon": 0.001, "beta_initializer": {"config": {"dtype": "float32"}, "class_name": "Zeros"}, "moving_mean_initializer": {"config": {"dtype": "float32"}, "class_name": "Zeros"}, "gamma_initializer": {"config": {"dtype": "float32"}, "class_name": "Ones"}, "moving_variance_initializer": {"config": {"dtype": "float32"}, "class_name": "Ones"}, "gamma_constraint": null, "beta_constraint": null, "momentum": 0.99, "center": true, "scale": true, "gamma_regularizer": null}, "name": "block7_sepconv2_bn", "class_name": "BatchNormalization", "inbound_nodes": [[["block7_sepconv2", 0, 0, {}]]]}, {"config": {"dtype": "float32", "name": "block7_sepconv3_act", "trainable": false, "activation": "relu"}, "name": "block7_sepconv3_act", "class_name": "Activation", "inbound_nodes": [[["block7_sepconv2_bn", 0, 0, {}]]]}, {"config": {"depthwise_regularizer": null, "dtype": "float32", "name": "block7_sepconv3", "padding": "same", "trainable": false, "activation": "linear", "activity_regularizer": null, "data_format": "channels_last", "pointwise_regularizer": null, "kernel_size": [3, 3], "pointwise_constraint": null, "bias_constraint": null, "depthwise_initializer": {"config": {"distribution": "uniform", "dtype": "float32", "scale": 1.0, "seed": null, "mode": "fan_avg"}, "class_name": "VarianceScaling"}, "bias_regularizer": null, "bias_initializer": {"config": {"dtype": "float32"}, "class_name": "Zeros"}, "filters": 728, "use_bias": false, "dilation_rate": [1, 1], "pointwise_initializer": {"config": {"distribution": "uniform", "dtype": "float32", "scale": 1.0, "seed": null, "mode": "fan_avg"}, "class_name": "VarianceScaling"}, "strides": [1, 1], "depthwise_constraint": null}, "name": "block7_sepconv3", "class_name": "SeparableConv2D", "inbound_nodes": [[["block7_sepconv3_act", 0, 0, {}]]]}, {"config": {"beta_regularizer": null, "axis": [3], "dtype": "float32", "name": "block7_sepconv3_bn", "trainable": false, "epsilon": 0.001, "beta_initializer": {"config": {"dtype": "float32"}, "class_name": "Zeros"}, "moving_mean_initializer": {"config": {"dtype": "float32"}, "class_name": "Zeros"}, "gamma_initializer": {"config": {"dtype": "float32"}, "class_name": "Ones"}, "moving_variance_initializer": {"config": {"dtype": "float32"}, "class_name": "Ones"}, "gamma_constraint": null, "beta_constraint": null, "momentum": 0.99, "center": true, "scale": true, "gamma_regularizer": null}, "name": "block7_sepconv3_bn", "class_name": "BatchNormalization", "inbound_nodes": [[["block7_sepconv3", 0, 0, {}]]]}, {"config": {"dtype": "float32", "name": "add_6", "trainable": false}, "name": "add_6", "class_name": "Add", "inbound_nodes": [[["block7_sepconv3_bn", 0, 0, {}], ["add_5", 0, 0, {}]]]}, {"config": {"dtype": "float32", "name": "block8_sepconv1_act", "trainable": false, "activation": "relu"}, "name": "block8_sepconv1_act", "class_name": "Activation", "inbound_nodes": [[["add_6", 0, 0, {}]]]}, {"config": {"depthwise_regularizer": null, "dtype": "float32", "name": "block8_sepconv1", "padding": "same", "trainable": false, "activation": "linear", "activity_regularizer": null, "data_format": "channels_last", "pointwise_regularizer": null, "kernel_size": [3, 3], "pointwise_constraint": null, "bias_constraint": null, "depthwise_initializer": {"config": {"distribution": "uniform", "dtype": "float32", "scale": 1.0, "seed": null, "mode": "fan_avg"}, "class_name": "VarianceScaling"}, "bias_regularizer": null, "bias_initializer": {"config": {"dtype": "float32"}, "class_name": "Zeros"}, "filters": 728, "use_bias": false, "dilation_rate": [1, 1], "pointwise_initializer": {"config": {"distribution": "uniform", "dtype": "float32", "scale": 1.0, "seed": null, "mode": "fan_avg"}, "class_name": "VarianceScaling"}, "strides": [1, 1], "depthwise_constraint": null}, "name": "block8_sepconv1", "class_name": "SeparableConv2D", "inbound_nodes": [[["block8_sepconv1_act", 0, 0, {}]]]}, {"config": {"beta_regularizer": null, "axis": [3], "dtype": "float32", "name": "block8_sepconv1_bn", "trainable": false, "epsilon": 0.001, "beta_initializer": {"config": {"dtype": "float32"}, "class_name": "Zeros"}, "moving_mean_initializer": {"config": {"dtype": "float32"}, "class_name": "Zeros"}, "gamma_initializer": {"config": {"dtype": "float32"}, "class_name": "Ones"}, "moving_variance_initializer": {"config": {"dtype": "float32"}, "class_name": "Ones"}, "gamma_constraint": null, "beta_constraint": null, "momentum": 0.99, "center": true, "scale": true, "gamma_regularizer": null}, "name": "block8_sepconv1_bn", "class_name": "BatchNormalization", "inbound_nodes": [[["block8_sepconv1", 0, 0, {}]]]}, {"config": {"dtype": "float32", "name": "block8_sepconv2_act", "trainable": false, "activation": "relu"}, "name": "block8_sepconv2_act", "class_name": "Activation", "inbound_nodes": [[["block8_sepconv1_bn", 0, 0, {}]]]}, {"config": {"depthwise_regularizer": null, "dtype": "float32", "name": "block8_sepconv2", "padding": "same", "trainable": false, "activation": "linear", "activity_regularizer": null, "data_format": "channels_last", "pointwise_regularizer": null, "kernel_size": [3, 3], "pointwise_constraint": null, "bias_constraint": null, "depthwise_initializer": {"config": {"distribution": "uniform", "dtype": "float32", "scale": 1.0, "seed": null, "mode": "fan_avg"}, "class_name": "VarianceScaling"}, "bias_regularizer": null, "bias_initializer": {"config": {"dtype": "float32"}, "class_name": "Zeros"}, "filters": 728, "use_bias": false, "dilation_rate": [1, 1], "pointwise_initializer": {"config": {"distribution": "uniform", "dtype": "float32", "scale": 1.0, "seed": null, "mode": "fan_avg"}, "class_name": "VarianceScaling"}, "strides": [1, 1], "depthwise_constraint": null}, "name": "block8_sepconv2", "class_name": "SeparableConv2D", "inbound_nodes": [[["block8_sepconv2_act", 0, 0, {}]]]}, {"config": {"beta_regularizer": null, "axis": [3], "dtype": "float32", "name": "block8_sepconv2_bn", "trainable": false, "epsilon": 0.001, "beta_initializer": {"config": {"dtype": "float32"}, "class_name": "Zeros"}, "moving_mean_initializer": {"config": {"dtype": "float32"}, "class_name": "Zeros"}, "gamma_initializer": {"config": {"dtype": "float32"}, "class_name": "Ones"}, "moving_variance_initializer": {"config": {"dtype": "float32"}, "class_name": "Ones"}, "gamma_constraint": null, "beta_constraint": null, "momentum": 0.99, "center": true, "scale": true, "gamma_regularizer": null}, "name": "block8_sepconv2_bn", "class_name": "BatchNormalization", "inbound_nodes": [[["block8_sepconv2", 0, 0, {}]]]}, {"config": {"dtype": "float32", "name": "block8_sepconv3_act", "trainable": false, "activation": "relu"}, "name": "block8_sepconv3_act", "class_name": "Activation", "inbound_nodes": [[["block8_sepconv2_bn", 0, 0, {}]]]}, {"config": {"depthwise_regularizer": null, "dtype": "float32", "name": "block8_sepconv3", "padding": "same", "trainable": false, "activation": "linear", "activity_regularizer": null, "data_format": "channels_last", "pointwise_regularizer": null, "kernel_size": [3, 3], "pointwise_constraint": null, "bias_constraint": null, "depthwise_initializer": {"config": {"distribution": "uniform", "dtype": "float32", "scale": 1.0, "seed": null, "mode": "fan_avg"}, "class_name": "VarianceScaling"}, "bias_regularizer": null, "bias_initializer": {"config": {"dtype": "float32"}, "class_name": "Zeros"}, "filters": 728, "use_bias": false, "dilation_rate": [1, 1], "pointwise_initializer": {"config": {"distribution": "uniform", "dtype": "float32", "scale": 1.0, "seed": null, "mode": "fan_avg"}, "class_name": "VarianceScaling"}, "strides": [1, 1], "depthwise_constraint": null}, "name": "block8_sepconv3", "class_name": "SeparableConv2D", "inbound_nodes": [[["block8_sepconv3_act", 0, 0, {}]]]}, {"config": {"beta_regularizer": null, "axis": [3], "dtype": "float32", "name": "block8_sepconv3_bn", "trainable": false, "epsilon": 0.001, "beta_initializer": {"config": {"dtype": "float32"}, "class_name": "Zeros"}, "moving_mean_initializer": {"config": {"dtype": "float32"}, "class_name": "Zeros"}, "gamma_initializer": {"config": {"dtype": "float32"}, "class_name": "Ones"}, "moving_variance_initializer": {"config": {"dtype": "float32"}, "class_name": "Ones"}, "gamma_constraint": null, "beta_constraint": null, "momentum": 0.99, "center": true, "scale": true, "gamma_regularizer": null}, "name": "block8_sepconv3_bn", "class_name": "BatchNormalization", "inbound_nodes": [[["block8_sepconv3", 0, 0, {}]]]}, {"config": {"dtype": "float32", "name": "add_7", "trainable": false}, "name": "add_7", "class_name": "Add", "inbound_nodes": [[["block8_sepconv3_bn", 0, 0, {}], ["add_6", 0, 0, {}]]]}, {"config": {"dtype": "float32", "name": "block9_sepconv1_act", "trainable": false, "activation": "relu"}, "name": "block9_sepconv1_act", "class_name": "Activation", "inbound_nodes": [[["add_7", 0, 0, {}]]]}, {"config": {"depthwise_regularizer": null, "dtype": "float32", "name": "block9_sepconv1", "padding": "same", "trainable": false, "activation": "linear", "activity_regularizer": null, "data_format": "channels_last", "pointwise_regularizer": null, "kernel_size": [3, 3], "pointwise_constraint": null, "bias_constraint": null, "depthwise_initializer": {"config": {"distribution": "uniform", "dtype": "float32", "scale": 1.0, "seed": null, "mode": "fan_avg"}, "class_name": "VarianceScaling"}, "bias_regularizer": null, "bias_initializer": {"config": {"dtype": "float32"}, "class_name": "Zeros"}, "filters": 728, "use_bias": false, "dilation_rate": [1, 1], "pointwise_initializer": {"config": {"distribution": "uniform", "dtype": "float32", "scale": 1.0, "seed": null, "mode": "fan_avg"}, "class_name": "VarianceScaling"}, "strides": [1, 1], "depthwise_constraint": null}, "name": "block9_sepconv1", "class_name": "SeparableConv2D", "inbound_nodes": [[["block9_sepconv1_act", 0, 0, {}]]]}, {"config": {"beta_regularizer": null, "axis": [3], "dtype": "float32", "name": "block9_sepconv1_bn", "trainable": false, "epsilon": 0.001, "beta_initializer": {"config": {"dtype": "float32"}, "class_name": "Zeros"}, "moving_mean_initializer": {"config": {"dtype": "float32"}, "class_name": "Zeros"}, "gamma_initializer": {"config": {"dtype": "float32"}, "class_name": "Ones"}, "moving_variance_initializer": {"config": {"dtype": "float32"}, "class_name": "Ones"}, "gamma_constraint": null, "beta_constraint": null, "momentum": 0.99, "center": true, "scale": true, "gamma_regularizer": null}, "name": "block9_sepconv1_bn", "class_name": "BatchNormalization", "inbound_nodes": [[["block9_sepconv1", 0, 0, {}]]]}, {"config": {"dtype": "float32", "name": "block9_sepconv2_act", "trainable": false, "activation": "relu"}, "name": "block9_sepconv2_act", "class_name": "Activation", "inbound_nodes": [[["block9_sepconv1_bn", 0, 0, {}]]]}, {"config": {"depthwise_regularizer": null, "dtype": "float32", "name": "block9_sepconv2", "padding": "same", "trainable": false, "activation": "linear", "activity_regularizer": null, "data_format": "channels_last", "pointwise_regularizer": null, "kernel_size": [3, 3], "pointwise_constraint": null, "bias_constraint": null, "depthwise_initializer": {"config": {"distribution": "uniform", "dtype": "float32", "scale": 1.0, "seed": null, "mode": "fan_avg"}, "class_name": "VarianceScaling"}, "bias_regularizer": null, "bias_initializer": {"config": {"dtype": "float32"}, "class_name": "Zeros"}, "filters": 728, "use_bias": false, "dilation_rate": [1, 1], "pointwise_initializer": {"config": {"distribution": "uniform", "dtype": "float32", "scale": 1.0, "seed": null, "mode": "fan_avg"}, "class_name": "VarianceScaling"}, "strides": [1, 1], "depthwise_constraint": null}, "name": "block9_sepconv2", "class_name": "SeparableConv2D", "inbound_nodes": [[["block9_sepconv2_act", 0, 0, {}]]]}, {"config": {"beta_regularizer": null, "axis": [3], "dtype": "float32", "name": "block9_sepconv2_bn", "trainable": false, "epsilon": 0.001, "beta_initializer": {"config": {"dtype": "float32"}, "class_name": "Zeros"}, "moving_mean_initializer": {"config": {"dtype": "float32"}, "class_name": "Zeros"}, "gamma_initializer": {"config": {"dtype": "float32"}, "class_name": "Ones"}, "moving_variance_initializer": {"config": {"dtype": "float32"}, "class_name": "Ones"}, "gamma_constraint": null, "beta_constraint": null, "momentum": 0.99, "center": true, "scale": true, "gamma_regularizer": null}, "name": "block9_sepconv2_bn", "class_name": "BatchNormalization", "inbound_nodes": [[["block9_sepconv2", 0, 0, {}]]]}, {"config": {"dtype": "float32", "name": "block9_sepconv3_act", "trainable": false, "activation": "relu"}, "name": "block9_sepconv3_act", "class_name": "Activation", "inbound_nodes": [[["block9_sepconv2_bn", 0, 0, {}]]]}, {"config": {"depthwise_regularizer": null, "dtype": "float32", "name": "block9_sepconv3", "padding": "same", "trainable": false, "activation": "linear", "activity_regularizer": null, "data_format": "channels_last", "pointwise_regularizer": null, "kernel_size": [3, 3], "pointwise_constraint": null, "bias_constraint": null, "depthwise_initializer": {"config": {"distribution": "uniform", "dtype": "float32", "scale": 1.0, "seed": null, "mode": "fan_avg"}, "class_name": "VarianceScaling"}, "bias_regularizer": null, "bias_initializer": {"config": {"dtype": "float32"}, "class_name": "Zeros"}, "filters": 728, "use_bias": false, "dilation_rate": [1, 1], "pointwise_initializer": {"config": {"distribution": "uniform", "dtype": "float32", "scale": 1.0, "seed": null, "mode": "fan_avg"}, "class_name": "VarianceScaling"}, "strides": [1, 1], "depthwise_constraint": null}, "name": "block9_sepconv3", "class_name": "SeparableConv2D", "inbound_nodes": [[["block9_sepconv3_act", 0, 0, {}]]]}, {"config": {"beta_regularizer": null, "axis": [3], "dtype": "float32", "name": "block9_sepconv3_bn", "trainable": false, "epsilon": 0.001, "beta_initializer": {"config": {"dtype": "float32"}, "class_name": "Zeros"}, "moving_mean_initializer": {"config": {"dtype": "float32"}, "class_name": "Zeros"}, "gamma_initializer": {"config": {"dtype": "float32"}, "class_name": "Ones"}, "moving_variance_initializer": {"config": {"dtype": "float32"}, "class_name": "Ones"}, "gamma_constraint": null, "beta_constraint": null, "momentum": 0.99, "center": true, "scale": true, "gamma_regularizer": null}, "name": "block9_sepconv3_bn", "class_name": "BatchNormalization", "inbound_nodes": [[["block9_sepconv3", 0, 0, {}]]]}, {"config": {"dtype": "float32", "name": "add_8", "trainable": false}, "name": "add_8", "class_name": "Add", "inbound_nodes": [[["block9_sepconv3_bn", 0, 0, {}], ["add_7", 0, 0, {}]]]}, {"config": {"dtype": "float32", "name": "block10_sepconv1_act", "trainable": false, "activation": "relu"}, "name": "block10_sepconv1_act", "class_name": "Activation", "inbound_nodes": [[["add_8", 0, 0, {}]]]}, {"config": {"depthwise_regularizer": null, "dtype": "float32", "name": "block10_sepconv1", "padding": "same", "trainable": false, "activation": "linear", "activity_regularizer": null, "data_format": "channels_last", "pointwise_regularizer": null, "kernel_size": [3, 3], "pointwise_constraint": null, "bias_constraint": null, "depthwise_initializer": {"config": {"distribution": "uniform", "dtype": "float32", "scale": 1.0, "seed": null, "mode": "fan_avg"}, "class_name": "VarianceScaling"}, "bias_regularizer": null, "bias_initializer": {"config": {"dtype": "float32"}, "class_name": "Zeros"}, "filters": 728, "use_bias": false, "dilation_rate": [1, 1], "pointwise_initializer": {"config": {"distribution": "uniform", "dtype": "float32", "scale": 1.0, "seed": null, "mode": "fan_avg"}, "class_name": "VarianceScaling"}, "strides": [1, 1], "depthwise_constraint": null}, "name": "block10_sepconv1", "class_name": "SeparableConv2D", "inbound_nodes": [[["block10_sepconv1_act", 0, 0, {}]]]}, {"config": {"beta_regularizer": null, "axis": [3], "dtype": "float32", "name": "block10_sepconv1_bn", "trainable": false, "epsilon": 0.001, "beta_initializer": {"config": {"dtype": "float32"}, "class_name": "Zeros"}, "moving_mean_initializer": {"config": {"dtype": "float32"}, "class_name": "Zeros"}, "gamma_initializer": {"config": {"dtype": "float32"}, "class_name": "Ones"}, "moving_variance_initializer": {"config": {"dtype": "float32"}, "class_name": "Ones"}, "gamma_constraint": null, "beta_constraint": null, "momentum": 0.99, "center": true, "scale": true, "gamma_regularizer": null}, "name": "block10_sepconv1_bn", "class_name": "BatchNormalization", "inbound_nodes": [[["block10_sepconv1", 0, 0, {}]]]}, {"config": {"dtype": "float32", "name": "block10_sepconv2_act", "trainable": false, "activation": "relu"}, "name": "block10_sepconv2_act", "class_name": "Activation", "inbound_nodes": [[["block10_sepconv1_bn", 0, 0, {}]]]}, {"config": {"depthwise_regularizer": null, "dtype": "float32", "name": "block10_sepconv2", "padding": "same", "trainable": false, "activation": "linear", "activity_regularizer": null, "data_format": "channels_last", "pointwise_regularizer": null, "kernel_size": [3, 3], "pointwise_constraint": null, "bias_constraint": null, "depthwise_initializer": {"config": {"distribution": "uniform", "dtype": "float32", "scale": 1.0, "seed": null, "mode": "fan_avg"}, "class_name": "VarianceScaling"}, "bias_regularizer": null, "bias_initializer": {"config": {"dtype": "float32"}, "class_name": "Zeros"}, "filters": 728, "use_bias": false, "dilation_rate": [1, 1], "pointwise_initializer": {"config": {"distribution": "uniform", "dtype": "float32", "scale": 1.0, "seed": null, "mode": "fan_avg"}, "class_name": "VarianceScaling"}, "strides": [1, 1], "depthwise_constraint": null}, "name": "block10_sepconv2", "class_name": "SeparableConv2D", "inbound_nodes": [[["block10_sepconv2_act", 0, 0, {}]]]}, {"config": {"beta_regularizer": null, "axis": [3], "dtype": "float32", "name": "block10_sepconv2_bn", "trainable": false, "epsilon": 0.001, "beta_initializer": {"config": {"dtype": "float32"}, "class_name": "Zeros"}, "moving_mean_initializer": {"config": {"dtype": "float32"}, "class_name": "Zeros"}, "gamma_initializer": {"config": {"dtype": "float32"}, "class_name": "Ones"}, "moving_variance_initializer": {"config": {"dtype": "float32"}, "class_name": "Ones"}, "gamma_constraint": null, "beta_constraint": null, "momentum": 0.99, "center": true, "scale": true, "gamma_regularizer": null}, "name": "block10_sepconv2_bn", "class_name": "BatchNormalization", "inbound_nodes": [[["block10_sepconv2", 0, 0, {}]]]}, {"config": {"dtype": "float32", "name": "block10_sepconv3_act", "trainable": false, "activation": "relu"}, "name": "block10_sepconv3_act", "class_name": "Activation", "inbound_nodes": [[["block10_sepconv2_bn", 0, 0, {}]]]}, {"config": {"depthwise_regularizer": null, "dtype": "float32", "name": "block10_sepconv3", "padding": "same", "trainable": false, "activation": "linear", "activity_regularizer": null, "data_format": "channels_last", "pointwise_regularizer": null, "kernel_size": [3, 3], "pointwise_constraint": null, "bias_constraint": null, "depthwise_initializer": {"config": {"distribution": "uniform", "dtype": "float32", "scale": 1.0, "seed": null, "mode": "fan_avg"}, "class_name": "VarianceScaling"}, "bias_regularizer": null, "bias_initializer": {"config": {"dtype": "float32"}, "class_name": "Zeros"}, "filters": 728, "use_bias": false, "dilation_rate": [1, 1], "pointwise_initializer": {"config": {"distribution": "uniform", "dtype": "float32", "scale": 1.0, "seed": null, "mode": "fan_avg"}, "class_name": "VarianceScaling"}, "strides": [1, 1], "depthwise_constraint": null}, "name": "block10_sepconv3", "class_name": "SeparableConv2D", "inbound_nodes": [[["block10_sepconv3_act", 0, 0, {}]]]}, {"config": {"beta_regularizer": null, "axis": [3], "dtype": "float32", "name": "block10_sepconv3_bn", "trainable": false, "epsilon": 0.001, "beta_initializer": {"config": {"dtype": "float32"}, "class_name": "Zeros"}, "moving_mean_initializer": {"config": {"dtype": "float32"}, "class_name": "Zeros"}, "gamma_initializer": {"config": {"dtype": "float32"}, "class_name": "Ones"}, "moving_variance_initializer": {"config": {"dtype": "float32"}, "class_name": "Ones"}, "gamma_constraint": null, "beta_constraint": null, "momentum": 0.99, "center": true, "scale": true, "gamma_regularizer": null}, "name": "block10_sepconv3_bn", "class_name": "BatchNormalization", "inbound_nodes": [[["block10_sepconv3", 0, 0, {}]]]}, {"config": {"dtype": "float32", "name": "add_9", "trainable": false}, "name": "add_9", "class_name": "Add", "inbound_nodes": [[["block10_sepconv3_bn", 0, 0, {}], ["add_8", 0, 0, {}]]]}, {"config": {"dtype": "float32", "name": "block11_sepconv1_act", "trainable": false, "activation": "relu"}, "name": "block11_sepconv1_act", "class_name": "Activation", "inbound_nodes": [[["add_9", 0, 0, {}]]]}, {"config": {"depthwise_regularizer": null, "dtype": "float32", "name": "block11_sepconv1", "padding": "same", "trainable": false, "activation": "linear", "activity_regularizer": null, "data_format": "channels_last", "pointwise_regularizer": null, "kernel_size": [3, 3], "pointwise_constraint": null, "bias_constraint": null, "depthwise_initializer": {"config": {"distribution": "uniform", "dtype": "float32", "scale": 1.0, "seed": null, "mode": "fan_avg"}, "class_name": "VarianceScaling"}, "bias_regularizer": null, "bias_initializer": {"config": {"dtype": "float32"}, "class_name": "Zeros"}, "filters": 728, "use_bias": false, "dilation_rate": [1, 1], "pointwise_initializer": {"config": {"distribution": "uniform", "dtype": "float32", "scale": 1.0, "seed": null, "mode": "fan_avg"}, "class_name": "VarianceScaling"}, "strides": [1, 1], "depthwise_constraint": null}, "name": "block11_sepconv1", "class_name": "SeparableConv2D", "inbound_nodes": [[["block11_sepconv1_act", 0, 0, {}]]]}, {"config": {"beta_regularizer": null, "axis": [3], "dtype": "float32", "name": "block11_sepconv1_bn", "trainable": false, "epsilon": 0.001, "beta_initializer": {"config": {"dtype": "float32"}, "class_name": "Zeros"}, "moving_mean_initializer": {"config": {"dtype": "float32"}, "class_name": "Zeros"}, "gamma_initializer": {"config": {"dtype": "float32"}, "class_name": "Ones"}, "moving_variance_initializer": {"config": {"dtype": "float32"}, "class_name": "Ones"}, "gamma_constraint": null, "beta_constraint": null, "momentum": 0.99, "center": true, "scale": true, "gamma_regularizer": null}, "name": "block11_sepconv1_bn", "class_name": "BatchNormalization", "inbound_nodes": [[["block11_sepconv1", 0, 0, {}]]]}, {"config": {"dtype": "float32", "name": "block11_sepconv2_act", "trainable": false, "activation": "relu"}, "name": "block11_sepconv2_act", "class_name": "Activation", "inbound_nodes": [[["block11_sepconv1_bn", 0, 0, {}]]]}, {"config": {"depthwise_regularizer": null, "dtype": "float32", "name": "block11_sepconv2", "padding": "same", "trainable": false, "activation": "linear", "activity_regularizer": null, "data_format": "channels_last", "pointwise_regularizer": null, "kernel_size": [3, 3], "pointwise_constraint": null, "bias_constraint": null, "depthwise_initializer": {"config": {"distribution": "uniform", "dtype": "float32", "scale": 1.0, "seed": null, "mode": "fan_avg"}, "class_name": "VarianceScaling"}, "bias_regularizer": null, "bias_initializer": {"config": {"dtype": "float32"}, "class_name": "Zeros"}, "filters": 728, "use_bias": false, "dilation_rate": [1, 1], "pointwise_initializer": {"config": {"distribution": "uniform", "dtype": "float32", "scale": 1.0, "seed": null, "mode": "fan_avg"}, "class_name": "VarianceScaling"}, "strides": [1, 1], "depthwise_constraint": null}, "name": "block11_sepconv2", "class_name": "SeparableConv2D", "inbound_nodes": [[["block11_sepconv2_act", 0, 0, {}]]]}, {"config": {"beta_regularizer": null, "axis": [3], "dtype": "float32", "name": "block11_sepconv2_bn", "trainable": false, "epsilon": 0.001, "beta_initializer": {"config": {"dtype": "float32"}, "class_name": "Zeros"}, "moving_mean_initializer": {"config": {"dtype": "float32"}, "class_name": "Zeros"}, "gamma_initializer": {"config": {"dtype": "float32"}, "class_name": "Ones"}, "moving_variance_initializer": {"config": {"dtype": "float32"}, "class_name": "Ones"}, "gamma_constraint": null, "beta_constraint": null, "momentum": 0.99, "center": true, "scale": true, "gamma_regularizer": null}, "name": "block11_sepconv2_bn", "class_name": "BatchNormalization", "inbound_nodes": [[["block11_sepconv2", 0, 0, {}]]]}, {"config": {"dtype": "float32", "name": "block11_sepconv3_act", "trainable": false, "activation": "relu"}, "name": "block11_sepconv3_act", "class_name": "Activation", "inbound_nodes": [[["block11_sepconv2_bn", 0, 0, {}]]]}, {"config": {"depthwise_regularizer": null, "dtype": "float32", "name": "block11_sepconv3", "padding": "same", "trainable": false, "activation": "linear", "activity_regularizer": null, "data_format": "channels_last", "pointwise_regularizer": null, "kernel_size": [3, 3], "pointwise_constraint": null, "bias_constraint": null, "depthwise_initializer": {"config": {"distribution": "uniform", "dtype": "float32", "scale": 1.0, "seed": null, "mode": "fan_avg"}, "class_name": "VarianceScaling"}, "bias_regularizer": null, "bias_initializer": {"config": {"dtype": "float32"}, "class_name": "Zeros"}, "filters": 728, "use_bias": false, "dilation_rate": [1, 1], "pointwise_initializer": {"config": {"distribution": "uniform", "dtype": "float32", "scale": 1.0, "seed": null, "mode": "fan_avg"}, "class_name": "VarianceScaling"}, "strides": [1, 1], "depthwise_constraint": null}, "name": "block11_sepconv3", "class_name": "SeparableConv2D", "inbound_nodes": [[["block11_sepconv3_act", 0, 0, {}]]]}, {"config": {"beta_regularizer": null, "axis": [3], "dtype": "float32", "name": "block11_sepconv3_bn", "trainable": false, "epsilon": 0.001, "beta_initializer": {"config": {"dtype": "float32"}, "class_name": "Zeros"}, "moving_mean_initializer": {"config": {"dtype": "float32"}, "class_name": "Zeros"}, "gamma_initializer": {"config": {"dtype": "float32"}, "class_name": "Ones"}, "moving_variance_initializer": {"config": {"dtype": "float32"}, "class_name": "Ones"}, "gamma_constraint": null, "beta_constraint": null, "momentum": 0.99, "center": true, "scale": true, "gamma_regularizer": null}, "name": "block11_sepconv3_bn", "class_name": "BatchNormalization", "inbound_nodes": [[["block11_sepconv3", 0, 0, {}]]]}, {"config": {"dtype": "float32", "name": "add_10", "trainable": false}, "name": "add_10", "class_name": "Add", "inbound_nodes": [[["block11_sepconv3_bn", 0, 0, {}], ["add_9", 0, 0, {}]]]}, {"config": {"dtype": "float32", "name": "block12_sepconv1_act", "trainable": false, "activation": "relu"}, "name": "block12_sepconv1_act", "class_name": "Activation", "inbound_nodes": [[["add_10", 0, 0, {}]]]}, {"config": {"depthwise_regularizer": null, "dtype": "float32", "name": "block12_sepconv1", "padding": "same", "trainable": false, "activation": "linear", "activity_regularizer": null, "data_format": "channels_last", "pointwise_regularizer": null, "kernel_size": [3, 3], "pointwise_constraint": null, "bias_constraint": null, "depthwise_initializer": {"config": {"distribution": "uniform", "dtype": "float32", "scale": 1.0, "seed": null, "mode": "fan_avg"}, "class_name": "VarianceScaling"}, "bias_regularizer": null, "bias_initializer": {"config": {"dtype": "float32"}, "class_name": "Zeros"}, "filters": 728, "use_bias": false, "dilation_rate": [1, 1], "pointwise_initializer": {"config": {"distribution": "uniform", "dtype": "float32", "scale": 1.0, "seed": null, "mode": "fan_avg"}, "class_name": "VarianceScaling"}, "strides": [1, 1], "depthwise_constraint": null}, "name": "block12_sepconv1", "class_name": "SeparableConv2D", "inbound_nodes": [[["block12_sepconv1_act", 0, 0, {}]]]}, {"config": {"beta_regularizer": null, "axis": [3], "dtype": "float32", "name": "block12_sepconv1_bn", "trainable": false, "epsilon": 0.001, "beta_initializer": {"config": {"dtype": "float32"}, "class_name": "Zeros"}, "moving_mean_initializer": {"config": {"dtype": "float32"}, "class_name": "Zeros"}, "gamma_initializer": {"config": {"dtype": "float32"}, "class_name": "Ones"}, "moving_variance_initializer": {"config": {"dtype": "float32"}, "class_name": "Ones"}, "gamma_constraint": null, "beta_constraint": null, "momentum": 0.99, "center": true, "scale": true, "gamma_regularizer": null}, "name": "block12_sepconv1_bn", "class_name": "BatchNormalization", "inbound_nodes": [[["block12_sepconv1", 0, 0, {}]]]}, {"config": {"dtype": "float32", "name": "block12_sepconv2_act", "trainable": false, "activation": "relu"}, "name": "block12_sepconv2_act", "class_name": "Activation", "inbound_nodes": [[["block12_sepconv1_bn", 0, 0, {}]]]}, {"config": {"depthwise_regularizer": null, "dtype": "float32", "name": "block12_sepconv2", "padding": "same", "trainable": false, "activation": "linear", "activity_regularizer": null, "data_format": "channels_last", "pointwise_regularizer": null, "kernel_size": [3, 3], "pointwise_constraint": null, "bias_constraint": null, "depthwise_initializer": {"config": {"distribution": "uniform", "dtype": "float32", "scale": 1.0, "seed": null, "mode": "fan_avg"}, "class_name": "VarianceScaling"}, "bias_regularizer": null, "bias_initializer": {"config": {"dtype": "float32"}, "class_name": "Zeros"}, "filters": 728, "use_bias": false, "dilation_rate": [1, 1], "pointwise_initializer": {"config": {"distribution": "uniform", "dtype": "float32", "scale": 1.0, "seed": null, "mode": "fan_avg"}, "class_name": "VarianceScaling"}, "strides": [1, 1], "depthwise_constraint": null}, "name": "block12_sepconv2", "class_name": "SeparableConv2D", "inbound_nodes": [[["block12_sepconv2_act", 0, 0, {}]]]}, {"config": {"beta_regularizer": null, "axis": [3], "dtype": "float32", "name": "block12_sepconv2_bn", "trainable": false, "epsilon": 0.001, "beta_initializer": {"config": {"dtype": "float32"}, "class_name": "Zeros"}, "moving_mean_initializer": {"config": {"dtype": "float32"}, "class_name": "Zeros"}, "gamma_initializer": {"config": {"dtype": "float32"}, "class_name": "Ones"}, "moving_variance_initializer": {"config": {"dtype": "float32"}, "class_name": "Ones"}, "gamma_constraint": null, "beta_constraint": null, "momentum": 0.99, "center": true, "scale": true, "gamma_regularizer": null}, "name": "block12_sepconv2_bn", "class_name": "BatchNormalization", "inbound_nodes": [[["block12_sepconv2", 0, 0, {}]]]}, {"config": {"dtype": "float32", "name": "block12_sepconv3_act", "trainable": false, "activation": "relu"}, "name": "block12_sepconv3_act", "class_name": "Activation", "inbound_nodes": [[["block12_sepconv2_bn", 0, 0, {}]]]}, {"config": {"depthwise_regularizer": null, "dtype": "float32", "name": "block12_sepconv3", "padding": "same", "trainable": false, "activation": "linear", "activity_regularizer": null, "data_format": "channels_last", "pointwise_regularizer": null, "kernel_size": [3, 3], "pointwise_constraint": null, "bias_constraint": null, "depthwise_initializer": {"config": {"distribution": "uniform", "dtype": "float32", "scale": 1.0, "seed": null, "mode": "fan_avg"}, "class_name": "VarianceScaling"}, "bias_regularizer": null, "bias_initializer": {"config": {"dtype": "float32"}, "class_name": "Zeros"}, "filters": 728, "use_bias": false, "dilation_rate": [1, 1], "pointwise_initializer": {"config": {"distribution": "uniform", "dtype": "float32", "scale": 1.0, "seed": null, "mode": "fan_avg"}, "class_name": "VarianceScaling"}, "strides": [1, 1], "depthwise_constraint": null}, "name": "block12_sepconv3", "class_name": "SeparableConv2D", "inbound_nodes": [[["block12_sepconv3_act", 0, 0, {}]]]}, {"config": {"beta_regularizer": null, "axis": [3], "dtype": "float32", "name": "block12_sepconv3_bn", "trainable": false, "epsilon": 0.001, "beta_initializer": {"config": {"dtype": "float32"}, "class_name": "Zeros"}, "moving_mean_initializer": {"config": {"dtype": "float32"}, "class_name": "Zeros"}, "gamma_initializer": {"config": {"dtype": "float32"}, "class_name": "Ones"}, "moving_variance_initializer": {"config": {"dtype": "float32"}, "class_name": "Ones"}, "gamma_constraint": null, "beta_constraint": null, "momentum": 0.99, "center": true, "scale": true, "gamma_regularizer": null}, "name": "block12_sepconv3_bn", "class_name": "BatchNormalization", "inbound_nodes": [[["block12_sepconv3", 0, 0, {}]]]}, {"config": {"dtype": "float32", "name": "add_11", "trainable": false}, "name": "add_11", "class_name": "Add", "inbound_nodes": [[["block12_sepconv3_bn", 0, 0, {}], ["add_10", 0, 0, {}]]]}, {"config": {"dtype": "float32", "name": "block13_sepconv1_act", "trainable": false, "activation": "relu"}, "name": "block13_sepconv1_act", "class_name": "Activation", "inbound_nodes": [[["add_11", 0, 0, {}]]]}, {"config": {"depthwise_regularizer": null, "dtype": "float32", "name": "block13_sepconv1", "padding": "same", "trainable": false, "activation": "linear", "activity_regularizer": null, "data_format": "channels_last", "pointwise_regularizer": null, "kernel_size": [3, 3], "pointwise_constraint": null, "bias_constraint": null, "depthwise_initializer": {"config": {"distribution": "uniform", "dtype": "float32", "scale": 1.0, "seed": null, "mode": "fan_avg"}, "class_name": "VarianceScaling"}, "bias_regularizer": null, "bias_initializer": {"config": {"dtype": "float32"}, "class_name": "Zeros"}, "filters": 728, "use_bias": false, "dilation_rate": [1, 1], "pointwise_initializer": {"config": {"distribution": "uniform", "dtype": "float32", "scale": 1.0, "seed": null, "mode": "fan_avg"}, "class_name": "VarianceScaling"}, "strides": [1, 1], "depthwise_constraint": null}, "name": "block13_sepconv1", "class_name": "SeparableConv2D", "inbound_nodes": [[["block13_sepconv1_act", 0, 0, {}]]]}, {"config": {"beta_regularizer": null, "axis": [3], "dtype": "float32", "name": "block13_sepconv1_bn", "trainable": false, "epsilon": 0.001, "beta_initializer": {"config": {"dtype": "float32"}, "class_name": "Zeros"}, "moving_mean_initializer": {"config": {"dtype": "float32"}, "class_name": "Zeros"}, "gamma_initializer": {"config": {"dtype": "float32"}, "class_name": "Ones"}, "moving_variance_initializer": {"config": {"dtype": "float32"}, "class_name": "Ones"}, "gamma_constraint": null, "beta_constraint": null, "momentum": 0.99, "center": true, "scale": true, "gamma_regularizer": null}, "name": "block13_sepconv1_bn", "class_name": "BatchNormalization", "inbound_nodes": [[["block13_sepconv1", 0, 0, {}]]]}, {"config": {"dtype": "float32", "name": "block13_sepconv2_act", "trainable": false, "activation": "relu"}, "name": "block13_sepconv2_act", "class_name": "Activation", "inbound_nodes": [[["block13_sepconv1_bn", 0, 0, {}]]]}, {"config": {"depthwise_regularizer": null, "dtype": "float32", "name": "block13_sepconv2", "padding": "same", "trainable": false, "activation": "linear", "activity_regularizer": null, "data_format": "channels_last", "pointwise_regularizer": null, "kernel_size": [3, 3], "pointwise_constraint": null, "bias_constraint": null, "depthwise_initializer": {"config": {"distribution": "uniform", "dtype": "float32", "scale": 1.0, "seed": null, "mode": "fan_avg"}, "class_name": "VarianceScaling"}, "bias_regularizer": null, "bias_initializer": {"config": {"dtype": "float32"}, "class_name": "Zeros"}, "filters": 1024, "use_bias": false, "dilation_rate": [1, 1], "pointwise_initializer": {"config": {"distribution": "uniform", "dtype": "float32", "scale": 1.0, "seed": null, "mode": "fan_avg"}, "class_name": "VarianceScaling"}, "strides": [1, 1], "depthwise_constraint": null}, "name": "block13_sepconv2", "class_name": "SeparableConv2D", "inbound_nodes": [[["block13_sepconv2_act", 0, 0, {}]]]}, {"config": {"beta_regularizer": null, "axis": [3], "dtype": "float32", "name": "block13_sepconv2_bn", "trainable": false, "epsilon": 0.001, "beta_initializer": {"config": {"dtype": "float32"}, "class_name": "Zeros"}, "moving_mean_initializer": {"config": {"dtype": "float32"}, "class_name": "Zeros"}, "gamma_initializer": {"config": {"dtype": "float32"}, "class_name": "Ones"}, "moving_variance_initializer": {"config": {"dtype": "float32"}, "class_name": "Ones"}, "gamma_constraint": null, "beta_constraint": null, "momentum": 0.99, "center": true, "scale": true, "gamma_regularizer": null}, "name": "block13_sepconv2_bn", "class_name": "BatchNormalization", "inbound_nodes": [[["block13_sepconv2", 0, 0, {}]]]}, {"config": {"dtype": "float32", "name": "conv2d_4", "padding": "same", "trainable": false, "activation": "linear", "activity_regularizer": null, "data_format": "channels_last", "kernel_size": [1, 1], "bias_constraint": null, "kernel_constraint": null, "bias_initializer": {"config": {"dtype": "float32"}, "class_name": "Zeros"}, "filters": 1024, "use_bias": false, "dilation_rate": [1, 1], "bias_regularizer": null, "strides": [2, 2], "kernel_initializer": {"config": {"distribution": "uniform", "dtype": "float32", "scale": 1.0, "seed": null, "mode": "fan_avg"}, "class_name": "VarianceScaling"}, "kernel_regularizer": null}, "name": "conv2d_4", "class_name": "Conv2D", "inbound_nodes": [[["add_11", 0, 0, {}]]]}, {"config": {"dtype": "float32", "name": "block13_pool", "padding": "same", "trainable": false, "data_format": "channels_last", "strides": [2, 2], "pool_size": [3, 3]}, "name": "block13_pool", "class_name": "MaxPooling2D", "inbound_nodes": [[["block13_sepconv2_bn", 0, 0, {}]]]}, {"config": {"beta_regularizer": null, "axis": [3], "dtype": "float32", "name": "batch_normalization_4", "trainable": false, "epsilon": 0.001, "beta_initializer": {"config": {"dtype": "float32"}, "class_name": "Zeros"}, "moving_mean_initializer": {"config": {"dtype": "float32"}, "class_name": "Zeros"}, "gamma_initializer": {"config": {"dtype": "float32"}, "class_name": "Ones"}, "moving_variance_initializer": {"config": {"dtype": "float32"}, "class_name": "Ones"}, "gamma_constraint": null, "beta_constraint": null, "momentum": 0.99, "center": true, "scale": true, "gamma_regularizer": null}, "name": "batch_normalization_4", "class_name": "BatchNormalization", "inbound_nodes": [[["conv2d_4", 0, 0, {}]]]}, {"config": {"dtype": "float32", "name": "add_12", "trainable": false}, "name": "add_12", "class_name": "Add", "inbound_nodes": [[["block13_pool", 0, 0, {}], ["batch_normalization_4", 0, 0, {}]]]}, {"config": {"depthwise_regularizer": null, "dtype": "float32", "name": "block14_sepconv1", "padding": "same", "trainable": false, "activation": "linear", "activity_regularizer": null, "data_format": "channels_last", "pointwise_regularizer": null, "kernel_size": [3, 3], "pointwise_constraint": null, "bias_constraint": null, "depthwise_initializer": {"config": {"distribution": "uniform", "dtype": "float32", "scale": 1.0, "seed": null, "mode": "fan_avg"}, "class_name": "VarianceScaling"}, "bias_regularizer": null, "bias_initializer": {"config": {"dtype": "float32"}, "class_name": "Zeros"}, "filters": 1536, "use_bias": false, "dilation_rate": [1, 1], "pointwise_initializer": {"config": {"distribution": "uniform", "dtype": "float32", "scale": 1.0, "seed": null, "mode": "fan_avg"}, "class_name": "VarianceScaling"}, "strides": [1, 1], "depthwise_constraint": null}, "name": "block14_sepconv1", "class_name": "SeparableConv2D", "inbound_nodes": [[["add_12", 0, 0, {}]]]}, {"config": {"beta_regularizer": null, "axis": [3], "dtype": "float32", "name": "block14_sepconv1_bn", "trainable": false, "epsilon": 0.001, "beta_initializer": {"config": {"dtype": "float32"}, "class_name": "Zeros"}, "moving_mean_initializer": {"config": {"dtype": "float32"}, "class_name": "Zeros"}, "gamma_initializer": {"config": {"dtype": "float32"}, "class_name": "Ones"}, "moving_variance_initializer": {"config": {"dtype": "float32"}, "class_name": "Ones"}, "gamma_constraint": null, "beta_constraint": null, "momentum": 0.99, "center": true, "scale": true, "gamma_regularizer": null}, "name": "block14_sepconv1_bn", "class_name": "BatchNormalization", "inbound_nodes": [[["block14_sepconv1", 0, 0, {}]]]}, {"config": {"dtype": "float32", "name": "block14_sepconv1_act", "trainable": false, "activation": "relu"}, "name": "block14_sepconv1_act", "class_name": "Activation", "inbound_nodes": [[["block14_sepconv1_bn", 0, 0, {}]]]}, {"config": {"depthwise_regularizer": null, "dtype": "float32", "name": "block14_sepconv2", "padding": "same", "trainable": false, "activation": "linear", "activity_regularizer": null, "data_format": "channels_last", "pointwise_regularizer": null, "kernel_size": [3, 3], "pointwise_constraint": null, "bias_constraint": null, "depthwise_initializer": {"config": {"distribution": "uniform", "dtype": "float32", "scale": 1.0, "seed": null, "mode": "fan_avg"}, "class_name": "VarianceScaling"}, "bias_regularizer": null, "bias_initializer": {"config": {"dtype": "float32"}, "class_name": "Zeros"}, "filters": 2048, "use_bias": false, "dilation_rate": [1, 1], "pointwise_initializer": {"config": {"distribution": "uniform", "dtype": "float32", "scale": 1.0, "seed": null, "mode": "fan_avg"}, "class_name": "VarianceScaling"}, "strides": [1, 1], "depthwise_constraint": null}, "name": "block14_sepconv2", "class_name": "SeparableConv2D", "inbound_nodes": [[["block14_sepconv1_act", 0, 0, {}]]]}, {"config": {"beta_regularizer": null, "axis": [3], "dtype": "float32", "name": "block14_sepconv2_bn", "trainable": false, "epsilon": 0.001, "beta_initializer": {"config": {"dtype": "float32"}, "class_name": "Zeros"}, "moving_mean_initializer": {"config": {"dtype": "float32"}, "class_name": "Zeros"}, "gamma_initializer": {"config": {"dtype": "float32"}, "class_name": "Ones"}, "moving_variance_initializer": {"config": {"dtype": "float32"}, "class_name": "Ones"}, "gamma_constraint": null, "beta_constraint": null, "momentum": 0.99, "center": true, "scale": true, "gamma_regularizer": null}, "name": "block14_sepconv2_bn", "class_name": "BatchNormalization", "inbound_nodes": [[["block14_sepconv2", 0, 0, {}]]]}, {"config": {"dtype": "float32", "name": "block14_sepconv2_act", "trainable": false, "activation": "relu"}, "name": "block14_sepconv2_act", "class_name": "Activation", "inbound_nodes": [[["block14_sepconv2_bn", 0, 0, {}]]]}, {"config": {"dtype": "float32", "name": "flatten_1", "trainable": true}, "name": "flatten_1", "class_name": "Flatten", "inbound_nodes": [[["block14_sepconv2_act", 0, 0, {}]]]}, {"config": {"dtype": "float32", "name": "dense_1", "trainable": true, "activation": "relu", "activity_regularizer": null, "bias_constraint": null, "kernel_constraint": null, "bias_initializer": {"config": {"dtype": "float32"}, "class_name": "Zeros"}, "use_bias": true, "bias_regularizer": null, "kernel_initializer": {"config": {"distribution": "uniform", "dtype": "float32", "scale": 1.0, "seed": null, "mode": "fan_avg"}, "class_name": "VarianceScaling"}, "units": 4096, "kernel_regularizer": null}, "name": "dense_1", "class_name": "Dense", "inbound_nodes": [[["flatten_1", 0, 0, {}]]]}, {"config": {"dtype": "float32", "name": "dropout_1", "trainable": true, "seed": null, "rate": 0.5, "noise_shape": null}, "name": "dropout_1", "class_name": "Dropout", "inbound_nodes": [[["dense_1", 0, 0, {}]]]}, {"config": {"dtype": "float32", "name": "dense_2", "trainable": true, "activation": "relu", "activity_regularizer": null, "bias_constraint": null, "kernel_constraint": null, "bias_initializer": {"config": {"dtype": "float32"}, "class_name": "Zeros"}, "use_bias": true, "bias_regularizer": null, "kernel_initializer": {"config": {"distribution": "uniform", "dtype": "float32", "scale": 1.0, "seed": null, "mode": "fan_avg"}, "class_name": "VarianceScaling"}, "units": 4096, "kernel_regularizer": null}, "name": "dense_2", "class_name": "Dense", "inbound_nodes": [[["dropout_1", 0, 0, {}]]]}, {"config": {"dtype": "float32", "name": "dropout_2", "trainable": true, "seed": null, "rate": 0.5, "noise_shape": null}, "name": "dropout_2", "class_name": "Dropout", "inbound_nodes": [[["dense_2", 0, 0, {}]]]}, {"config": {"dtype": "float32", "name": "dense_3", "trainable": true, "activation": "sigmoid", "activity_regularizer": null, "bias_constraint": null, "kernel_constraint": null, "bias_initializer": {"config": {"dtype": "float32"}, "class_name": "Zeros"}, "use_bias": true, "bias_regularizer": null, "kernel_initializer": {"config": {"distribution": "uniform", "dtype": "float32", "scale": 1.0, "seed": null, "mode": "fan_avg"}, "class_name": "VarianceScaling"}, "units": 3, "kernel_regularizer": null}, "name": "dense_3", "class_name": "Dense", "inbound_nodes": [[["dropout_2", 0, 0, {}]]]}, {"config": {"dtype": "float32", "name": "dense_4", "trainable": true, "activation": "sigmoid", "activity_regularizer": null, "bias_constraint": null, "kernel_constraint": null, "bias_initializer": {"config": {"dtype": "float32"}, "class_name": "Zeros"}, "use_bias": true, "bias_regularizer": null, "kernel_initializer": {"config": {"distribution": "uniform", "dtype": "float32", "scale": 1.0, "seed": null, "mode": "fan_avg"}, "class_name": "VarianceScaling"}, "units": 25, "kernel_regularizer": null}, "name": "dense_4", "class_name": "Dense", "inbound_nodes": [[["dropout_2", 0, 0, {}]]]}], "input_layers": [["input_1", 0, 0]], "output_layers": [["dense_3", 0, 0], ["dense_4", 0, 0]]}, "keras_version": "2.1.5-tf", "class_name": "Model", "backend": "tensorflow"}